models/vision_model.pth (torch, 34375 bytes, 10 tensors)

conv_block_1.0.weight f4 [10, 1, 3, 3]
000000 81 a6 97 3e 9c 9c a2 3e a9 58 dc be 7b 95 93 bd
       0.2961922 0.31760108 -0.43036392 -0.072062455
000010 44 4f 5a 3e 50 c9 dc b9 80 64 0b bf d6 74 df 3d
       0.213193 -0.0004211166 -0.54450226 0.109109566
000020 ce fc 0c 3f e3 3d c3 be e4 4a aa 3e e5 bb 50 bd
       0.5507325 -0.38133153 0.33260262 -0.05096044
000030 f5 60 6d 3e 3f e4 a7 3e 76 86 11 3e e9 c8 aa bd
       0.23181517 0.32791325 0.14211449 -0.08339102
000040 87 ee b0 3e 18 6f 8c 3d 2f aa 83 be b5 07 1d be
       0.34556982 0.06857127 -0.25715777 -0.15334971
000050 e8 83 a9 3d 6e 1f 5a bf b9 21 4b bf 87 51 43 3e
       0.08277112 -0.8520421 -0.7934833 0.19074069
000060 50 ca 6f bf 1f 77 59 bf a1 23 54 be 25 d6 61 bf
       -0.9366808 -0.8494739 -0.20716716 -0.88217384
000070 78 99 ba bf b6 53 4e bf ba b1 9d 3e 6d d8 16 bf
       -1.4578085 -0.8059648 0.30799657 -0.5892399
000080 5c 71 9b 3e b6 1f 67 3e 81 d4 ed bd ba 42 d5 3e
       0.30359924 0.2257069 -0.116127975 0.4165247
000090 bf 6f 36 bd bc 43 0d 3f 84 ab d0 bd e2 bc c7 be
       -0.044540163 0.5518148 -0.10188964 -0.39011294
0000a0 26 1d 01 3f a5 be 8e be 6c 5b 75 be 11 7f 9c 3e
       0.504351 -0.27879825 -0.23960656 0.30565694
0000b0 5e af 2d 3e c1 05 0c be 81 ca 4b 3e 61 87 67 3d
       0.16961429 -0.1367407 0.19901468 0.05652559
0000c0 51 13 34 3e 0c d8 4e be b6 8f ab be d9 a3 fc bd
       0.17585494 -0.20199603 -0.3350808 -0.12335939
0000d0 71 39 80 be d0 f1 82 3e 79 ed 9d 3d 7e 21 99 bd
       -0.25043824 0.25575113 0.0771131 -0.07477091
0000e0 42 bf dd bd 50 5f 4d 3d f1 4c a0 3e ec fc 96 be
       -0.10827495 0.050139725 0.31308702 -0.2948984
0000f0 15 e8 62 be af cf 13 bf 04 1e 7e be b3 32 d7 bd
       -0.22158845 -0.57738775 -0.24816138 -0.10507717
000100 1f 8e 04 3e 91 b8 5a be 97 2a c0 3e c9 47 af be
       0.1294484 -0.21359469 0.37532493 -0.34234455
000110 6a 0f 1c bf ab 25 87 be ed ed 19 3f 6d 35 8c 3e
       -0.6096102 -0.26395926 0.6012867 0.2738451
000120 9e c1 d0 3e 50 67 c1 be d0 98 d8 be 52 a8 be be
       0.40772718 -0.37774134 -0.42304087 -0.37237793
000130 f6 52 fb be 29 27 a8 3d 11 3f 5c 3e 5d 95 1c 3f
       -0.49086732 0.08210594 0.21508433 0.6116541
000140 14 bd 06 bd 08 91 68 be ba b7 33 3e 2d 86 0a be
       -0.032895163 -0.22711575 0.17550555 -0.13527746
000150 25 5f 4d 3e 88 3f a5 bd 3c 32 41 3e c2 b7 84 be
       0.20055826 -0.08068758 0.18866819 -0.25921446
000160 cf 7f 2c be 85 4e cc 3d
       -0.1684563 0.09975914

conv_block_1.0.bias f4 [10]
000000 b3 f0 0b 3d 00 8c 41 3d aa 2d 4c 3e 0b e1 58 3e
       0.034165096 0.047252655 0.19939294 0.21179597
000010 0c 45 55 3c 11 7f 4a be 5d c5 62 3e 9c 0f 93 bd
       0.01301695 -0.19775034 0.221456 -0.071807116
000020 bd 42 82 bd 4a 68 a6 be
       -0.063603856 -0.3250144

conv_block_1.2.weight f4 [10, 10, 3, 3]
000000 c9 ed 5c bd d7 f5 9b bd 0c e3 c3 bd 4a 2e c7 bd
       -0.053937707 -0.076152496 -0.0956479 -0.09725626
000010 e7 c4 7f be 9c 59 5d be a0 4a 30 3d 2a b2 41 be
       -0.24977456 -0.21616215 0.043039918 -0.1891562
000020 66 81 0c be 54 41 12 be 62 09 ef bd 1d 4c f8 bd
       -0.13721237 -0.14282733 -0.116717115 -0.121238925
000030 fb 2c e6 bd 87 49 98 be f8 01 2d be 7d 72 47 bd
       -0.11239048 -0.29743597 -0.16895282 -0.04869317
000040 db e2 61 be d4 94 72 be e8 f4 46 bd 70 14 62 3d
       -0.22059195 -0.23689586 -0.048573405 0.055195272
000050 51 92 0c 3e f6 c3 85 3d d1 99 aa 3e 97 3d b4 3e
       0.1372769 0.06531517 0.33320478 0.3520324
000060 f7 c6 ee bd 4a cf 97 bd 9e 42 df 3d b5 73 01 be
       -0.11659043 -0.07412584 0.10901378 -0.12641795
000070 ea 10 d2 bc 7c 03 90 be c0 44 9a 3d 26 22 8d 3d
       -0.02564283 -0.28127658 0.07532644 0.06891279
000080 4f 52 09 be de 79 b8 3d 85 86 b4 3d 6f 8f 8a 3d
       -0.13410304 0.09007619 0.0881472 0.06765639
000090 d5 f5 4a be a8 d8 45 be 55 63 3e bd 5a 37 0e be
       -0.1982034 -0.19320929 -0.04648145 -0.13888302
0000a0 5a 69 b0 bd 79 59 44 be 6c c6 d0 3d ec 41 29 be
       -0.08613844 -0.19174756 0.10194096 -0.16529053
0000b0 29 52 4b bd 07 b8 b6 3c 58 35 5f 3d 75 13 ab 3d
       -0.0496389 0.022304548 0.054494232 0.083533205
0000c0 68 9a c5 3d 22 57 ac bd 79 6e dd 3c f4 32 38 bd
       0.09648591 -0.08415057 0.027030217 -0.044970468
0000d0 23 fa 5e bc ff 36 9c bd 13 75 21 3e 89 e7 cf bd
       -0.013609442 -0.07627677 0.15767317 -0.10151584
0000e0 44 38 82 bd 2e 6e 30 3e b1 d4 12 3e 10 e7 45 3c
       -0.06358388 0.1722953 0.14338948 0.012079015
0000f0 33 ef 8e 3d 92 1e 00 3c b0 33 68 bd 70 2b 51 bd
       0.069792174 0.0078197885 -0.056689918 -0.051066816
000100 34 6f 77 3d 30 42 a2 bb ad a4 4b bd 5c c0 b5 3d
       0.060408786 -0.004951738 -0.049717594 0.0887458
000110 c0 c4 92 3b 5b db 0a bc 46 78 52 bd ae 51 6d bd
       0.004479021 -0.00847515 -0.051384233 -0.057939224
000120 61 92 42 3d f9 d0 3f bc 2d 2d e7 bc 44 a0 09 bd
       0.04750288 -0.011707538 -0.028219784 -0.033600107
000130 3c c5 bd bd e4 0e 59 3d 8f e4 0b 3e fc 20 77 bd
       -0.09266135 0.052992716 0.13661407 -0.06033419
000140 5b 81 23 bc 64 08 5f 3d 59 46 9c 3c 2e c6 19 bd
       -0.009979571 0.05445136 0.019076513 -0.037542515
000150 32 5a 61 3d c6 e4 62 3d f0 7a 21 3d 7c ac 97 bc
       0.055017658 0.055393957 0.039423883 -0.018514864
000160 c4 a8 e4 bc ea b1 38 3c d5 a7 0b bd 79 b8 4a bd
       -0.027912505 0.011272887 -0.034095604 -0.049492333
000170 34 75 7c 3d 31 c5 9e 3d 65 95 f7 bb 79 10 73 bb
       0.06163521 0.07752455 -0.007555651 -0.0037088676
000180 3c a6 39 bb 23 f5 c9 3b eb e8 b6 3c 72 d3 77 3c
       -0.0028327843 0.006163256 0.02232786 0.015126096
000190 47 25 b3 bd c5 c2 d8 bc e9 23 aa 3d 31 b1 64 3d
       -0.087473445 -0.02646006 0.083076306 0.055833045
0001a0 9b 6b 1a 3c 82 7c d2 bd 8d e8 87 bd 72 0b b9 bd
       0.009425069 -0.10277654 -0.066361524 -0.09035386
0001b0 a8 34 0f bd 6d b3 0e 3d ff f1 73 3d b1 d7 43 3d
       -0.034962326 0.034839083 0.059556957 0.04781312
0001c0 a5 05 c1 bd de 1e 91 bd fb bf bb bc 8e b8 cd 3d
       -0.09424905 -0.070859656 -0.022918692 0.10044967
0001d0 e0 8e 23 3b 13 d0 a1 bb bf 4c 1e 3d 4c 21 3c bd
       0.0024956986 -0.0049381345 0.03864741 -0.045930192
0001e0 01 61 81 bd 88 74 9e 3d f1 bb 65 bd 57 a3 a7 bc
       -0.0631733 0.0773707 -0.056087438 -0.020463629
0001f0 ea f4 dd bd 85 24 93 3d f6 0f 84 3d bf a1 13 3d
       -0.10837729 0.071847 0.06448357 0.036042925
000200 ed ab 9c bd 95 55 05 be c2 b9 b6 bd c4 26 ac 3d
       -0.0764998 -0.13020928 -0.08922149 0.084058315
000210 90 98 ed 3c cc f0 b4 3d 79 ce 55 3d e5 ed da 3c
       0.029003412 0.08834991 0.05219886 0.026724765
000220 78 9c 7b ba 0b 23 a4 bd 56 c4 b8 bd b2 a3 c9 bd
       -0.0009598206 -0.080144964 -0.09021823 -0.098456755
000230 ed 63 33 3d c5 69 52 bd 15 e0 ad bc d5 5d 78 bd
       0.04379647 -0.0513704 -0.021225015 -0.06063636
000240 4b ae b2 bc 91 70 a6 bd 6c e4 8f bd dc 5d 0d 3d
       -0.021811625 -0.08126939 -0.0702599 0.03451334
000250 6e 44 08 bd 0e 1c 85 3d 4b 92 c8 bc 71 a6 b2 bd
       -0.033268385 0.06499492 -0.02448382 -0.087231524
000260 70 da c1 bc 5f 95 60 bd 9c 32 12 bd bc 03 d0 bd
       -0.02366373 -0.05482995 -0.035692796 -0.10156962
000270 b3 2a 76 3d 77 02 98 bd bd 7f 67 3d 3b 27 3e 3d
       0.060099315 -0.07422345 0.056518305 0.04642413
000280 5c a7 a8 3d 5f 18 aa bd d0 3b a4 3d b0 0a 36 bd
       0.08235046 -0.0830543 0.08019221 -0.044443786
000290 2a a3 23 3d 1e 1a b6 3d 88 0e 96 bc 21 eb eb ba
       0.039950527 0.088917 -0.018317476 -0.0017999151
0002a0 98 ad de bc 49 f0 b3 bd 89 00 78 3d ed 4d d6 bd
       -0.027182385 -0.08786065 0.060547385 -0.10464082
0002b0 f6 04 86 3d 1d 8c a1 3d a9 27 cc 3d ee c8 cb bc
       0.06543915 0.078880526 0.09968502 -0.024876084
0002c0 76 70 b1 bd 64 20 c2 3c b9 80 6e 3d 51 dd d6 bd
       -0.08664028 0.023697086 0.05822823 -0.104914315
0002d0 50 2c cc bc 2b 28 87 bd 14 a5 63 bc 90 37 51 bd
       -0.024923474 -0.06599458 -0.013894338 -0.05107838
0002e0 51 c7 29 bd fb df ea bc eb 7b d3 bd 97 60 b2 3d
       -0.04144985 -0.028671255 -0.1032637 0.08709829
0002f0 24 65 b5 3d a6 ae 8a bc 18 32 51 bc 46 e2 34 bd
       0.08857182 -0.016928982 -0.012768291 -0.044161104
000300 d3 c9 c1 bd c9 c7 cf bd fb 0e 21 3d cc df 80 bd
       -0.09462323 -0.10145528 0.039320927 -0.06292686
000310 43 75 8a bd c2 99 c8 bb a6 00 1f bd dc c6 20 bd
       -0.06760647 -0.006121845 -0.038818978 -0.039252147
000320 5a 84 d1 ba 42 7b ab bc 46 89 1b bd 72 57 6e bd
       -0.0015984878 -0.020932797 -0.03797271 -0.058188863
000330 86 f8 ae bd 65 03 b6 3d 33 91 2c bd e6 b0 b6 3c
       -0.08543496 0.08887366 -0.04213066 0.022301149
000340 1a a5 2b bd bc 9e 51 3b 5d ae c1 3d ee e2 40 3d
       -0.0419055 0.0031985482 0.09457085 0.047091417
000350 46 b6 ac bd 75 d0 02 3d 4a ec bf 3d c5 32 e1 3c
       -0.084332034 0.03193708 0.093712404 0.02749003
000360 81 25 8f 3d ea 8d d1 3d 4f da 8b bc db 9e a8 3c
       0.06989575 0.10232146 -0.017071871 0.02058356
000370 bf 62 96 bd cd ff 9e bc e4 ff 91 3d 5d 07 4b 3d
       -0.07343053 -0.019409085 0.071288854 0.04956757
000380 24 4a 94 bd d2 1d ad bd ac 72 93 bd cc 05 d5 bd
       -0.07240704 -0.084529534 -0.07199606 -0.10401496
000390 72 94 a6 bd f6 ee d5 bc d3 fb 91 3d cf a7 8f 3c
       -0.081337824 -0.026114922 0.0712811 0.017536072
0003a0 bd 43 a4 bd e4 39 ad bd 4a 7b 3c 3d 3e ea ad bd
       -0.080207326 -0.084583074 0.046016015 -0.08491944
0003b0 02 df 93 bc 49 44 42 3d 16 bd 5d bd 59 ef 82 bc
       -0.018050674 0.047428403 -0.054135405 -0.01598327
0003c0 35 55 24 bc 82 c3 d5 bc 2e f3 61 bd a5 af c0 bd
       -0.010030081 -0.026094202 -0.055163555 -0.094085015
0003d0 c1 92 ae bd a4 36 67 bd e8 47 d2 3d e1 24 50 bd
       -0.08524085 -0.056448594 0.10267621 -0.05081642
0003e0 d9 9d 8d bd 08 79 a9 3c a6 8d da 3c 8b 7b 67 3d
       -0.06914873 0.020687595 0.026678871 0.056514304
0003f0 d7 b0 a3 3d ad 6c 70 3d e1 70 d6 bd 49 4d 32 3c
       0.07992714 0.05869739 -0.10470749 0.010882684

conv_block_1.2.bias f4 [10]
000000 ce 53 93 3e f0 38 69 bd b6 e8 91 bd 54 a8 ca 3e
       0.28774875 -0.056939065 -0.07124464 0.3958155
000010 e4 68 80 bd 2f 35 ff 3c 1a fd b7 3d 96 fa 8a bd
       -0.06270006 0.03115329 0.08983822 -0.06786077
000020 7b ca a5 3e c2 83 8f bd
       0.32381043 -0.07007553

conv_block_2.0.weight f4 [10, 10, 3, 3]
000000 7a 69 0c be 3d 9e 2f be 3e c0 4e bd b9 17 7b be
       -0.13712111 -0.17150207 -0.050476305 -0.24520768
000010 dd 77 03 3d 56 72 9d 3d b0 a0 a7 be 26 bb 14 3e
       0.032096732 0.076878235 -0.32739782 0.14524516
000020 b3 51 c5 3d c5 8b 6a 3d a4 ab c7 bd 14 7a 23 bd
       0.096347235 0.0572622 -0.09749535 -0.039911345
000030 32 a4 b2 bd 91 c9 81 bd 07 f3 75 3d 42 50 76 bc
       -0.08722724 -0.06337274 0.060046222 -0.015033783
000040 3b 8e 48 3d d5 5d 79 bd d7 8b 89 3c ab a6 80 bd
       0.048963767 -0.0608805 0.016790314 -0.062817894
000050 50 46 4d 3d d9 49 38 bd c4 2c d9 bc 0f 3f bb bd
       0.050115883 -0.0449923 -0.026510604 -0.09142887
000060 eb 56 30 3a 5f 3c ce 3d df 52 54 3d 07 17 57 be
       0.0006726819 0.100701086 0.051836845 -0.21004878
000070 48 e7 c3 3d 1b b2 d4 bd bf a7 52 bd f9 7e 7a 3e
       0.09565598 -0.103855334 -0.051429506 0.24462499
000080 20 02 c2 3d 0a 6e 47 3e 12 2e 9d be 22 20 be bd
       0.094730616 0.1947557 -0.3069921 -0.092834726
000090 37 8a 2b 3c 4e a5 0a 3c 7c d8 f7 3b ee 83 42 bd
       0.010469965 0.008462263 0.0075636487 -0.0474891
0000a0 55 39 0d 3e 3e 1d c2 bc aa b3 92 bd 40 f2 28 bd
       0.13791402 -0.023695584 -0.071631745 -0.041246653
0000b0 87 2e ae 3d 9b 82 e2 bd 11 ed d8 bd 29 65 52 be
       0.08504968 -0.11060067 -0.10592092 -0.20546402
0000c0 92 30 1f be 36 33 87 bb f1 ab a2 bd 07 c6 de bc
       -0.15545872 -0.004125978 -0.079429515 -0.027194036
0000d0 7e 70 6a 3e 9e d9 56 3e 80 62 d1 be 8c 79 8f 3e
       0.22894475 0.20981452 -0.40895462 0.2802242
0000e0 cc b2 6e be 9d 5b 73 3d 26 a3 39 3e b8 bc d4 3d
       -0.23310393 0.05941354 0.18128642 0.10387558
0000f0 e0 92 ff 3e a8 fb 05 3d 7e e7 6e bd d3 3f 78 3d
       0.49916744 0.0327107 -0.058326237 0.060607743
000100 98 0c c8 3d b2 03 ed bd 62 5d 42 3d 32 b3 19 3e
       0.09768027 -0.115729704 0.047452338 0.15009764
000110 35 54 97 bd 40 5d 0b 3e cc 2c 12 be d0 f1 d6 bd
       -0.07389108 0.13609791 -0.14274901 -0.10495341
000120 30 b0 a1 be 76 ee 19 3d d8 f4 2e be aa 93 23 3d
       -0.31579733 0.03758093 -0.17085588 0.039935745
000130 93 07 b9 3e a8 67 03 3e a8 8a 10 3d 2b cd 15 be
       0.3613859 0.1283251 0.035288483 -0.14629047
000140 72 fb c5 3c 80 00 47 3e 5a 94 51 3e 81 0a 85 3d
       0.02416775 0.19433784 0.20466748 0.06496144
000150 d5 09 fd 3d 8b b2 3f 3e 6e d4 fd 3d 72 99 36 be
       0.12355391 0.18720452 0.12394033 -0.17831972
000160 b9 22 5e bd 6c f7 84 3e fd a6 de bd 77 c0 e7 be
       -0.054232333 0.25970018 -0.10871694 -0.45264027
000170 e6 ab a0 be 55 34 bc 3e a9 e3 af be 17 3a 30 3d
       -0.31381148 0.36758676 -0.34353378 0.04302415
000180 ee e2 0f 3e a0 cf 06 3e ac ee 9d bc 7b ca 03 3d
       0.1405141 0.1316514 -0.019278847 0.032175522
000190 f5 07 5a bd 16 21 e7 bd 8e 2b 4d bd 3c b8 a1 3d
       -0.053230245 -0.112856075 -0.050090365 0.07896468
0001a0 06 38 0a bd c6 e4 c5 3c 10 cf 49 bd 9a 7c 67 3d
       -0.033744834 0.02415694 -0.049269736 0.056515314
0001b0 c9 da 6d 3d 0d ce 18 3d ab 36 4c bd c1 b6 b1 bd
       0.058069978 0.03730588 -0.049856823 -0.08677436
0001c0 3b 21 88 3b d7 f6 7a bd 8a d8 b0 3d d7 f6 cf bd
       0.004154352 -0.06127056 0.086350515 -0.10154503
0001d0 04 98 3f 3d db 11 30 3e 9c af cf 3e 41 be 82 3e
       0.046775833 0.17194311 0.40563667 0.25535777
0001e0 d9 c8 1e be bf e1 3c 3f 87 ee 8e 3e c5 5f 55 bf
       -0.15506305 0.7378196 0.27916357 -0.8334926
0001f0 fa 6e 97 be 63 fb 4b be 5e a9 b3 3d 14 0d 34 3e
       -0.29576856 -0.19920115 0.087725386 0.17583114
000200 bb 69 3d bd 3a 0e 94 bd de 67 44 bd e3 86 59 bd
       -0.04624341 -0.07229276 -0.047950618 -0.053107154
000210 22 35 7f 3d 81 44 9a bd 2d 07 9a bc 37 b9 00 3e
       0.06230653 -0.07532597 -0.01880225 0.12570654
000220 12 7f 02 bf b0 fb d0 bd 41 80 e0 3e 99 15 62 3d
       -0.50975144 -0.102042556 0.4384785 0.05519638
000230 47 9c 27 be 07 c9 20 3c f6 84 31 3e 5f bb f6 3d
       -0.16368209 0.009813554 0.17335877 0.12047457
000240 47 24 59 bf de f8 3e 3e 7f 57 08 3e b7 f5 02 bf
       -0.8482098 0.18649623 0.13314627 -0.5115618
000250 62 39 ca 3e 9b 1c 01 3f 3a 93 1f be a1 a8 6c 3d
       0.39496905 0.50434273 -0.15583506 0.057778005
000260 b5 ad 63 be 4e a8 04 be c5 cc b6 be 56 84 6d bc
       -0.22234233 -0.12954828 -0.35703102 -0.014496883
000270 77 15 af be ad a9 25 be 19 0d 16 be 1d 3f 19 be
       -0.34196064 -0.16178007 -0.14653434 -0.14965482
000280 3c 26 6d be 83 e4 42 be 0b 00 b6 be 39 dd 9a 3d
       -0.23159117 -0.19032483 -0.35546908 0.07561726
000290 0e 09 ff 3e ff ed d9 bc d8 bc b8 3e 2e 7d 6a 3e
       0.49811596 -0.026602743 0.36081576 0.22899315
0002a0 30 96 80 be 88 a1 d0 bc b7 00 01 be 22 d4 9b 3e
       -0.25114584 -0.02546765 -0.12597929 0.30435282
0002b0 a3 41 a6 bd 05 47 e9 bd b6 c6 98 bd 97 fd 6e 3d
       -0.08117988 -0.11390499 -0.07459776 0.05834731
0002c0 b6 d9 63 be 87 3a 29 be e3 6d 39 3e d4 33 ed 3d
       -0.22251019 -0.16526233 0.18108325 0.11582151
0002d0 81 9a bd 3c 99 af ea 3d 3a a5 39 3d 74 2c fc 3c
       0.023144962 0.11459274 0.045323588 0.030782916
0002e0 86 29 83 bd d2 9b 7d bd fd d1 0c bd cb 14 63 bd
       -0.06404404 -0.06191618 -0.034379948 -0.05543975
0002f0 51 df cc bc c1 7e d1 bc 78 05 57 bd 53 47 0c bd
       -0.02500883 -0.025573136 -0.05249545 -0.034247708
000300 6a ff 14 bd 4e 38 d5 3d a6 1b 1d bd 25 5a 9b bd
       -0.036376394 0.1041113 -0.038356446 -0.07585553
000310 5a ea 31 3d a7 67 aa bb d7 69 a5 3d 2c e8 86 3d
       0.043436386 -0.0052003446 0.08076828 0.06587252
000320 67 91 c6 3d 41 cb 9e bd 10 12 8b 3d 13 8b b5 3d
       0.09695702 -0.07753611 0.067905545 0.08864417
000330 81 81 54 bd dd ab c6 3d 55 f4 a1 3d 1b 17 28 bd
       -0.051881317 0.09700749 0.07907931 -0.04103766
000340 e2 11 45 3c 98 4d 5a bd 79 70 0b be 8d cd fb 3d
       0.012028189 -0.053296655 -0.13617124 0.12295065
000350 1b fe 90 3d 58 7d 5a be 04 db 00 3d bc 3c df bd
       0.07079717 -0.21336877 0.03145887 -0.10900256
000360 bb 04 a2 3d 09 3d ca 3d 8e 7c c6 3c af e4 95 bd
       0.079110585 0.09874923 0.024229314 -0.073190086
000370 28 2f 88 3d 52 95 b9 3c 00 60 27 3a 82 91 93 3c
       0.06649619 0.02265421 0.00063848495 0.01801372
000380 d8 7b 8a 3d 16 69 33 bd 58 93 03 be 40 22 43 3d
       0.067619026 -0.04380139 -0.12849176 0.047640085
000390 46 77 a9 3d 8c 73 04 3d 12 9d 8b bc 7f b5 7c bd
       0.08274703 0.032336757 -0.01704267 -0.061696526
0003a0 76 67 35 bd 7a c1 bb bd 62 42 e4 3d 7b df 0c bd
       -0.04428812 -0.09167762 0.11145474 -0.034392815
0003b0 6c 43 f4 bd b6 c7 6d bd 1e 85 77 bb da 17 db 3d
       -0.11926922 -0.058051787 -0.0037768553 0.10697909
0003c0 26 25 39 be 1c 88 50 be 98 ab 83 bc 9a 6d 0d 3d
       -0.18080577 -0.20364422 -0.016073033 0.034528352
0003d0 1d b2 3b bd aa 58 31 3d bc 6a 38 bd 32 85 ba 3d
       -0.04582416 0.043297447 -0.045023665 0.09107436
0003e0 ff 1c 8b 3c c2 f8 40 be 27 b7 a3 bc e0 13 96 3d
       0.0169816 -0.18844894 -0.019984795 0.073280096
0003f0 23 23 08 be 4e c4 0c be 32 fc f6 3d a2 44 d4 3c
       -0.13294654 -0.1374676 0.12059821 0.025911633

conv_block_2.0.bias f4 [10]
000000 29 8f 26 be 25 c5 d5 3d fb 7b 3b bc f3 b1 40 bd
       -0.16265549 0.10437993 -0.0114431335 -0.047044706
000010 a8 09 b6 bd d1 06 28 be a1 75 c4 3e ab f0 0c 3f
       -0.088885605 -0.1640885 0.38370994 0.5505473
000020 86 6a 3c 3f e0 c1 ec bd
       0.7360004 -0.11560416

conv_block_2.2.weight f4 [10, 10, 3, 3]
000000 6a 2c ef bc 6c 3d 95 be c8 6a 98 be 72 59 cd 3d
       -0.029195983 -0.29148424 -0.29768968 0.10026826
000010 ef ae 5b bd 2b 01 ce bc 77 4e 44 bc 4c 64 cd bd
       -0.053633627 -0.025147041 -0.011981598 -0.10028896
000020 f2 e7 88 3e 21 bd 34 bd 76 2c 89 be 9c e0 fe bd
       0.2673946 -0.04412568 -0.26791734 -0.124451846
000030 ae e3 9c 3d e8 04 62 3e c8 15 dc be a8 f8 86 3e
       0.07660614 0.22072184 -0.42985368 0.26361585
000040 00 d4 f2 3c 72 2a 39 bf e5 a1 4c 3b 37 29 b4 bd
       0.029642105 -0.7233039 0.0031224426 -0.087969236
000050 c8 13 90 3d 45 4b 15 be d4 1f 33 3c a4 31 31 3d
       0.07035023 -0.14579494 0.010932881 0.04326023
000060 ac b7 61 be dc 0a 20 3d 52 52 cd bd c8 b8 dc 3d
       -0.22042722 0.039072856 -0.10025467 0.10777432
000070 0b 51 25 3d ab a4 1e be 78 ef 09 3d 76 36 c2 bd
       0.04036049 -0.15492503 0.03367564 -0.09483044
000080 f8 81 2f be 83 03 45 3d cb b8 32 be c6 64 6d be
       -0.17139423 0.048099052 -0.17453305 -0.23182973
000090 6d c6 7c bd bc 6a d4 3c f1 07 f3 3c f9 d1 27 bd
       -0.06171267 0.025929801 0.029666873 -0.04097173
0000a0 d1 94 05 be e6 59 17 bd 72 36 30 bd 30 da 14 be
       -0.1304505 -0.03695097 -0.043020673 -0.14536357
0000b0 06 9c 67 be dc 1f eb bd 45 1d a7 bd 8d 48 ae 3d
       -0.22618112 -0.11480686 -0.081598796 0.08509932
0000c0 91 62 fa bd 93 59 a3 bb 89 bf 88 bc 38 01 e3 bc
       -0.12225831 -0.0049850433 -0.016692894 -0.027710542
0000d0 e0 37 66 bd a6 f0 05 be 7e ce ed be 23 d1 4f bc
       -0.05620563 -0.13080081 -0.46446604 -0.012684139
0000e0 ce 4c 3f bf cc 56 4f be 82 75 6f 3d ef bd b5 3e
       -0.7472657 -0.20247954 0.058461674 0.3549647
0000f0 2b 4e dc be 78 22 9f 3e b5 3b ac 3e 5f d2 ad 3e
       -0.43028387 0.31080985 0.33639303 0.33949563
000100 e4 56 5f 3d f0 b6 7d be 55 2b 9c bd ec 9e 67 bc
       0.054526225 -0.24776816 -0.076254524 -0.014137011
000110 80 fb 5c bc 6c 17 c6 3d eb 38 bc be 1b 2e af 3d
       -0.013487697 0.09672436 -0.36762175 0.08553716
000120 ce 37 7c 3e 21 6b 3f bd f8 51 4f 3d 72 aa 87 be
       0.24630663 -0.046733025 0.05061528 -0.26497227
000130 91 68 eb be 1f 52 69 3e bb 67 9c be b3 09 d8 be
       -0.45978215 0.22785233 -0.3054789 -0.421949
000140 d2 13 57 be 56 9e cf bd 6c 88 40 3c 52 7e 9a bd
       -0.21003655 -0.10137622 0.0117512755 -0.07543625
000150 4f 0b 97 3d 6e d6 54 bc a1 ec eb bd 85 c3 0c bd
       0.07375204 -0.012990577 -0.11519743 -0.03436615
000160 85 de f0 bc ce 41 c9 bd 22 d4 14 3d 72 01 a6 3c
       -0.02940298 -0.098270044 0.036335118 0.020264361
000170 bf 2f f9 bd 83 66 9f bd 65 47 44 3e 70 ba 7f be
       -0.1216731 -0.077832244 0.1916786 -0.24973464
000180 38 e4 da 3d b2 9c 8d 3e 0e 12 6a be 22 3d 49 3d
       0.106880605 0.27658612 -0.2285845 0.049130566
000190 cc 21 96 3e a9 8a b2 bd a1 80 92 bc 46 d1 d3 be
       0.2932266 -0.087178536 -0.0178836 -0.413706
0001a0 57 df a2 3e 8f 21 07 be 30 98 11 bf a7 ad 6a 3e
       0.3181102 -0.13196395 -0.56872845 0.22917806
0001b0 b2 93 1d be 4e 34 e2 bd 08 01 b7 3d 13 42 0d bd
       -0.15388373 -0.110451326 0.089357436 -0.03448684
0001c0 00 64 a3 bd 84 69 d1 3d de 21 07 be 3a 3a 35 be
       -0.07978058 0.10225204 -0.13196513 -0.17697993
0001d0 70 94 19 3c 96 53 86 be 3a eb 32 be 47 55 22 be
       0.009373769 -0.26235646 -0.17472544 -0.15852843
0001e0 c8 29 89 bd 39 54 ad be 07 18 86 be 29 71 f2 bd
       -0.06697422 -0.3385332 -0.26190206 -0.1183799
0001f0 56 47 04 be 6f ff d7 bd f8 fd 2e b9 3f 08 70 bd
       -0.12917838 -0.10546767 -0.00016688544 -0.058601614
000200 59 b6 c9 bc 38 4e f9 3d 61 e1 2f be 74 f3 2c 3d
       -0.024623083 0.12173122 -0.17175819 0.042224362
000210 d5 c2 62 3e fd 6a ae bd e8 45 01 be 01 44 7e bd
       0.22144635 -0.085165 -0.12624323 -0.062076572
000220 eb 34 4d 3e 00 69 51 3e 39 51 7e 3d 6b c6 cd bd
       0.20039718 0.2045021 0.06208918 -0.10047611
000230 6f 98 67 3e a7 c5 aa 3e e7 69 6c 3d 7f 96 c8 bd
       0.22616743 0.33353922 0.057718184 -0.0979433
000240 5c aa 8a bc 8c ae f3 be fb a9 23 3d 66 21 e5 bd
       -0.016926937 -0.47594106 0.039957028 -0.11188011
000250 47 bf a0 be 45 2a e9 3e ee 9b 92 3e 94 ec 54 be
       -0.31395933 0.45540062 0.2863459 -0.20793372
000260 4d fa 46 3d c9 2f f8 3d 11 8e bf bd 38 82 5c 3e
       0.04857855 0.12118489 -0.09353269 0.2153405
000270 83 16 d0 bd 63 59 5c be be 21 8c 3e 42 f4 60 bd
       -0.10160544 -0.21518473 0.27369493 -0.054920442
000280 7f 99 1c bf c8 18 af 3e 35 46 7d be de 89 9b be
       -0.61171716 0.34198594 -0.24733813 -0.30378622
000290 62 18 9c be d3 ef 4d 3e 13 94 c8 3d 4a ff 25 bf
       -0.30487353 0.20111017 0.09793868 -0.64842665
0002a0 28 13 14 3e c7 2c 91 3e b7 7b 03 be 40 36 4d be
       0.14460433 0.28354475 -0.12840162 -0.20040226
0002b0 3d 81 72 3e 4a 32 74 3e 98 6e 81 be 47 d8 e4 bd
       0.23682113 0.23847309 -0.2527969 -0.11174064
0002c0 fd cf 5e 3d eb 4b 95 bd ee 3d bf bd fe 5d fb bd
       0.05439757 -0.07289871 -0.09337984 -0.12273787
0002d0 96 be 8b 3e 65 38 c6 3d 42 4b d2 3c 1b c7 8d bd
       0.27293843 0.09678725 0.025670651 -0.06922742
0002e0 89 7a 35 bc 90 3e 8e be 92 a3 4c be e1 95 49 3e
       -0.011076578 -0.27782106 -0.19984272 0.1968608
0002f0 1a a0 83 bc 54 7f 2d bf 2b 83 d2 bd 0c 96 f7 be
       -0.016067553 -0.6777241 -0.102789246 -0.48356664
000300 88 2b da be 5d 05 d4 3e d0 f5 49 be 12 45 8a be
       -0.42611337 0.41410342 -0.19722676 -0.2700582
000310 ba eb ba 3d 9c 0a ae 3e 5a 1e b4 bd dc 58 00 be
       0.091269925 0.3399247 -0.087948516 -0.12533897
000320 86 08 37 3d a4 09 15 bd 62 4b af bc 41 e4 e8 3d
       0.044685863 -0.036386147 -0.02139825 0.11371661
000330 83 83 17 3d cf f7 87 bd b8 a1 42 3e ad 32 a1 be
       0.036990654 -0.066390626 0.19007003 -0.31483975
000340 c5 ee a8 3d 66 70 12 bc 20 30 66 3e 75 b1 4e 3e
       0.08248667 -0.008937931 0.22479296 0.20184882
000350 16 21 a9 bd e8 99 fb 3d 58 51 22 be 7f 38 1c 3c
       -0.08258264 0.12285215 -0.15851343 0.009534954
000360 a9 86 9a 3d cc a3 bc bd 72 e4 0f be 9b 68 92 bd
       0.07545216 -0.09210929 -0.14051989 -0.07148858
000370 ff e7 00 3e 15 55 21 be e5 6d 43 3d be 62 b9 3d
       0.125885 -0.15755112 0.047712225 0.09052037
000380 8c 09 a6 3d 09 9b bd 3c f2 bd 31 bc 99 a9 39 be
       0.0810729 0.023145216 -0.010848509 -0.18131103
000390 cc 48 f7 3d 8f 89 31 3d 53 a5 1a be 2a 79 88 bc
       0.12074432 0.043344077 -0.15102129 -0.016659338
0003a0 d2 64 c2 3d cc 39 b9 be a9 a2 3d bf 13 43 db be
       0.09491886 -0.36176908 -0.74076325 -0.4282461
0003b0 cf 43 59 3e b9 ba 09 bf e5 0a b8 bc 26 47 84 bd
       0.21217273 -0.5380054 -0.022466132 -0.06458883
0003c0 f2 20 c5 bd d6 b4 c2 3e c3 7f 0c 3e e1 b7 06 3e
       -0.096254244 0.38028592 0.13720612 0.13156082
0003d0 7e ed e3 3e 01 2b 02 3e 7b ac 8a be cd 6b 27 3e
       0.4451713 0.12711717 -0.27084717 0.16349716
0003e0 9d 7c bd bd 16 08 42 3d c4 04 de be ba 4e b0 bd
       -0.09252284 0.047370993 -0.4336301 -0.08608766
0003f0 72 33 50 be 7d 79 ef bd 6a 66 e4 3b ba bb c2 bb
       -0.20332125 -0.11693094 0.0069702165 -0.005942789

conv_block_2.2.bias f4 [10]
000000 c2 74 b4 3e db 86 b4 3d bb dc 72 3e 95 b5 4d bc
       0.3524533 0.08814784 0.23717014 -0.0125555
000010 08 64 eb bd b3 40 8b 3e c6 91 25 3d b8 d3 0f be
       -0.11493689 0.271978 0.040422224 -0.14045608
000020 37 87 b0 bd 12 bd 05 bc
       -0.0861954 -0.008162754

classifier.1.weight f4 [10, 490]
000000 dc 0f 1d 3d 20 18 56 be 80 e0 9f 3e 46 35 16 be
       0.038345203 -0.2090764 0.31225967 -0.1466876
000010 61 68 10 3e e0 2d b0 3c f8 42 40 3d fa f3 70 3d
       0.14102317 0.02150625 0.046938866 0.058826424
000020 f0 d9 a0 3e 7b a5 9f bb 11 49 4d be 45 a9 29 3e
       0.31416273 -0.0048720217 -0.20047404 0.16568477
000030 c5 1f 8b 3d 5c a0 83 3c 2b bb a2 3c 30 ee ae 3d
       0.06793169 0.016067676 0.01986464 0.085415244
000040 45 e4 11 3e c1 68 07 be 29 a4 00 bd f1 d4 c2 3c
       0.14247234 -0.13223554 -0.031406555 0.023783179
000050 81 c5 6e bd 9f 34 44 bc 2c 11 12 3e 24 11 92 3d
       -0.058293823 -0.0119754365 0.14264363 0.071321756
000060 78 0c 2e 3d 5d e2 c4 3d 7f 00 cf 3d 2a f0 9f bd
       0.04249236 0.09613488 0.101075165 -0.078094795
000070 f3 16 95 bd 3f 1b 5e 3d 9f ac b4 bc f1 dd 0f 3d
       -0.07279768 0.054225203 -0.022054968 0.03512377
000080 70 92 b7 3d 87 5c fa bd 27 1f bc 3d 41 02 81 3d
       0.089634776 -0.122246794 0.09185629 0.06299258
000090 fe 80 0d be 86 ff 41 ba 65 6d 8f be 3a 3f bc bd
       -0.13818738 -0.00074004417 -0.2801315 -0.09191747
0000a0 9f f1 3d 3e e9 56 c0 bd d7 30 cd 3d 22 7f 42 be
       0.18549202 -0.09391577 0.10019081 -0.1899381
0000b0 9a db 41 be e6 f3 cf 3b 45 2a 08 bd d2 60 da 3e
       -0.18931428 0.0063462136 -0.033243436 0.42651993
0000c0 48 8c 06 be b5 42 6c 3e 56 a0 5b 3e 31 88 76 be
       -0.1313945 0.23072322 0.21447882 -0.2407539
0000d0 2d c8 62 be 5e 00 e8 bd 80 5f bc bd 50 47 2e 3e
       -0.22146674 -0.11328195 -0.09197903 0.17019391
0000e0 9f 47 e6 3d 23 7a 9c 3d 3b a2 3f be f6 99 00 be
       0.112441294 0.07640483 -0.1871423 -0.12558731
0000f0 a8 7c 6b 3d 62 8f 2b bd 65 62 e5 bc 68 0c b8 3d
       0.05749193 -0.041884787 -0.02800102 0.08986741
000100 f2 3a 60 3e 3b b3 c3 bd 0f 2e ab bd 1a 08 e4 bb
       0.21897486 -0.0955567 -0.08358394 -0.0069589736
000110 c3 fc 4d 3e ec ed 58 3d d2 bf 22 3e 78 2c a6 bb
       0.20115952 0.052961275 0.15893486 -0.005071219
000120 f0 cd f8 3c 58 01 1a be f0 de af bd df f7 99 3e
       0.030371636 -0.15039575 -0.08587444 0.30071923
000130 35 a4 65 bb bd 71 52 3d b3 e7 29 3c ac 95 0b bd
       -0.0035040502 0.051378 0.010370183 -0.034078285
000140 12 1f a4 bd 87 34 fb 3d 2d 22 ab 3e 1e 8a d4 bd
       -0.08013739 0.12265878 0.33424512 -0.10377906
000150 d1 ba 16 be ac de af bb 0d d2 d7 bd 6a 5e 1e be
       -0.14719702 -0.0053671207 -0.10538111 -0.15465704
000160 92 17 77 bd 81 bd 9a 3c bc 79 01 3e 3b d8 3d be
       -0.060325213 0.01888919 0.12644094 -0.18539517
000170 66 3b 0a bd 80 a3 4e 3e e6 d2 a8 3d ff 66 95 bd
       -0.033748053 0.20179558 0.08243351 -0.072950356
000180 85 43 f1 bd 8b 89 34 3e a2 db 04 3d 16 75 8b bd
       -0.117804565 0.17630593 0.03243602 -0.06809442
000190 51 93 81 3d 29 f3 90 3b 43 f3 18 3e 65 6d 7e 3e
       0.063269265 0.004423518 0.14936547 0.24846418
0001a0 59 5f 0f 3c 3c 20 3b 3e 57 01 59 3d b7 3b 85 bd
       0.00875076 0.18274015 0.052979793 -0.0650553
0001b0 2b f5 66 3d 9b ad ea ba 49 c7 27 3e a0 03 5c bc
       0.056386154 -0.0017904522 0.16384615 -0.013428599
0001c0 7b c7 24 3e ca c2 67 3e ac 3a 5d 3e 53 f9 7a bd
       0.16091721 0.226329 0.21604413 -0.06127293
0001d0 0b e3 f6 3d cf 15 5d bd 3e 80 1f be bd 15 79 3d
       0.12055024 -0.053975876 -0.15576264 0.060811747
0001e0 29 55 8d bd 64 0b b2 3d 46 db 2c be fa d5 33 be
       -0.06901009 0.08693579 -0.16880521 -0.17562094
0001f0 3a 32 09 3e 0d d8 05 be a8 4e 72 be e6 54 7c bd
       0.13398066 -0.13070698 -0.23662817 -0.061604403
000200 a8 1f f2 3d 2e 2e b7 bd 0c 8d a7 bd 4a f0 cb 3c
       0.11822444 -0.08944355 -0.081811994 0.024894852
000210 36 7e f9 3c 79 66 da bd 7d 36 34 3e 87 52 87 3d
       0.03045569 -0.10664076 0.1759891 0.06607538
000220 73 85 91 bd 43 4b 91 bd 64 e9 e4 bc 11 98 35 3d
       -0.071055315 -0.07094433 -0.02794332 0.044334475
000230 43 1a e5 bd 67 89 9a 3d 82 a2 c7 3b c1 c1 4d be
       -0.1118665 0.07545739 0.0060923705 -0.20093442
000240 3e 00 06 bc 1e b8 67 be 74 0a bb bd 99 e4 52 3e
       -0.008178769 -0.22628829 -0.09132853 0.20595016
000250 5d b3 03 be 67 be a8 bd 5f dc 41 bb e6 c5 46 3e
       -0.1286139 -0.08239441 -0.0029580814 0.1941143
000260 80 b5 e6 3d 61 ff 85 bd f2 03 26 be 1a e7 9c 3d
       0.11265087 -0.0654285 -0.16212443 0.076612666
000270 6a c1 d1 bd a0 c5 28 bd 4d ff 57 bc bd da 0d be
       -0.10241969 -0.041204095 -0.013183427 -0.13852973
000280 0a 62 1e be 5b b1 28 be ee cc a9 bd dc f6 c0 bd
       -0.15467086 -0.16473906 -0.0829104 -0.09422085
000290 20 3f 8b 3d 7a e9 89 bd ea ff 99 bd 0b a7 3b 3d
       0.067991495 -0.06733985 -0.07519515 0.0458136
0002a0 97 1f d1 3c 3d 3e 15 3e e9 10 fd bc 8f 75 48 3d
       0.025527759 0.14574523 -0.030891852 0.048940238
0002b0 32 7f 4b bc 66 e9 ba 3c 39 a2 0e 3e 96 f5 0d 3d
       -0.012420462 0.022816371 0.1392907 0.034658037
0002c0 a4 e0 7d 3e 1f ca a2 bd 24 78 7c bd 3f e8 63 bd
       0.24792725 -0.07948708 -0.061638013 -0.05564141
0002d0 e1 06 91 bd 1d fa 6b 3e fa 79 0c 3d 2a 0c 2b 3e
       -0.0708139 0.2304463 0.034296013 0.16703859
0002e0 64 df 2d bd 51 1f 82 bd 98 a5 05 bc 1e 6e 2b bd
       -0.04244937 -0.063536294 -0.008157156 -0.041853063
0002f0 b6 ba 0f 3e cf a2 49 3d f2 f9 43 3d 36 f9 3f bd
       0.14036068 0.049227532 0.04784579 -0.046868525
000300 5d 47 60 3c 0f 16 fc bd e1 d7 01 bd a1 9a 8b 3d
       0.013688889 -0.12308895 -0.03170002 0.068166025
000310 19 79 8e bc c2 38 b9 3c 8f df f7 bb 8f 72 16 bd
       -0.017391728 0.022610072 -0.007564492 -0.036730345
000320 ad a0 7f 3c a7 dc 7c 3d 2a e7 96 bd cf 20 31 3d
       0.015602273 0.061733868 -0.0736831 0.04324418
000330 fe 65 4d bd e4 57 58 3e 9c 9b 5a 3e ab b8 62 3d
       -0.050146095 0.21127278 0.21348423 0.055351894
000340 5c a0 b4 bd b2 be 59 bd ee 9c c2 3d 9c c7 0c 3e
       -0.088196486 -0.053160377 0.09502588 0.1374802
000350 e9 ca ab bb 47 67 23 3e e0 9f 24 3e 61 a7 c4 3e
       -0.0052426946 0.15957366 0.16076612 0.3840895
000360 8f b0 9b 3d 18 cf 0d 3e e8 07 fe bc c0 d8 5f be
       0.07602035 0.13848531 -0.03100963 -0.21860027
000370 ae d4 a3 bc 58 c2 9e 3d c6 a1 95 3e 97 09 dc 3d
       -0.019998875 0.07751912 0.29224986 0.107440166
000380 4e df d3 3d 42 25 87 bd 23 e5 32 be 19 98 95 3c
       0.10345326 -0.06598903 -0.17470221 0.018261002
000390 bd cb 25 bd b9 94 80 bd 1f c8 3b bc c9 57 00 3d
       -0.040477503 -0.062783666 -0.011461287 0.03133372
0003a0 d2 11 d9 bd ec 32 2d 3c 54 ff 69 3c c2 0e 4d 3c
       -0.10599102 0.010571223 0.014282066 0.012515726
0003b0 9d 7e 3f 3d 3f 61 ed bd bf 3e 26 3c d4 0a 92 bc
       0.046751607 -0.11590814 0.010146796 -0.017827429
0003c0 fc 61 41 3e 27 7d a9 bc 18 02 03 be b7 1c e6 bd
       0.18885034 -0.02068956 -0.12793767 -0.11235946
0003d0 8c ab fd bc 7b 6b e2 3c 87 0b cf 3d 12 75 ea 3d
       -0.030965589 0.027639141 0.101096205 0.11448111
0003e0 28 38 1b 3d a5 0d 47 bc ee 16 cd 3e 64 02 09 3e
       0.03789535 -0.012149249 0.40056556 0.13379818
0003f0 54 a0 22 bd 9d a7 fa bd 84 01 26 3d 10 41 61 3e
       -0.039703682 -0.12239001 0.04052879 0.21997476

classifier.1.bias f4 [10]
000000 48 0c cc 3d 18 d4 2e be 52 79 e7 3e 10 2d 42 bc
       0.0996328 -0.17073095 0.45209748 -0.011851564
000010 c8 f2 c6 be b1 eb 6e be bc e9 0c 3e da 9c 68 3d
       -0.38857102 -0.23332097 0.13761038 0.05679021
000020 29 f4 25 3e 03 ec 0f be
       0.16206421 -0.14054875
